…
 sequencing as a special ASR network.\nArchitecture of Bonito The code referenced in this section has listed the specific github repo and commit. Readers can refer to the source code for reading. The following is the model architecture diagram output by torchinfo (dna_r9.4.1_e8_hac@v3.3, state_len=4), the input of the model is [64,5000] (batchsize, current_length)\n========================================================================================== Layer (type:depth-idx) Output Shape Param # ========================================================================================== Model [64, 1000, 1024] -- ├─Sequential: 1-1 [64, 1000, 1024] -- │ └─Convolution: 2-1 [64, 4, 5000] -- │ │ └─Conv1d: 3-1 [64, 4, 5000] 24 │ │ └─Swish: 3-2 [64, 4, 5000] -- │ └─Convolution: 2-2 [64, 16, 5000] -- │ │ └─Conv1d: 3-3 [64, 16, 5000] 336 │ │ └─Swish: 3-4 [64, 16, 5000] -- │ └─Convolution: 2-3 [64, 384, 1000] -- │ │ └─Conv1d: 3-5 [64, 384, 1000] 117,120 │ │ └─Swish: 3-6 [64, 384, 1000] -- │ └─Permute: 2-4 [1000, 64, 384] -- │ └─LSTM: 2-5 [1000, 64, 384] -- │ │ └─LSTM: 3-7 [1000, 64, 384] 1,182,720 │ └─LSTM: 2-6 [1000, 64, 384] -- │ │ └─LSTM: 3-8 [1000, 64, 384] 1,182,720 │ └─LSTM: 2-7 [1000, 64, 384] -- │ │ └─LSTM: 3-9 [1000, 64, 384] 1,182,720 │ └─LSTM: 2-8 [1000, 64, 384] -- │ │ └─LSTM: 3-10 [1000, 64, 384] 1,182,720 │ └─LSTM: 2-9 [1000, 64, 384] -- │ │ └─LSTM: 3-11 [1000, 64, 384] 1,182,720 │ └─Permute: 2-10 [64, 1000, 384] -- │ └─LinearCRFEncoder: 2-11 [64, 1000, 1024] -- │ │ └─Linear: 3-12 [64, 1000, 1024] 394,240 │ │ └─Tanh: 3-13 [64, 1000, 1024] -- ========================================================================================== Total params: 6,425,320 Trainable params: 6,417,640 Non-trainable params: 7,680 Total mult-adds (G): 386.11 ========================================================================================== Input size (MB): 0.64 Forward/backward pass size (MB): 877.57 Params size (MB): 12.85 Estimated Total Size (M
…
