…
以得到以pA为单位的电流 metadata 和测序相关的一些信息，如时间，使用的试剂盒，测序flowcell等 有读者可能会注意到，纳米孔测序的电流与语音识别的音频信号有些相似：比如，录入麦克风的声音也是以一维数组存储的；同时，Basecaller输出的ATCG也和语音识别网络（ASR）得到的文字转写（transcript）类似。因此，我们也可以认为纳米孔测序中的Basecaller是一个特殊的ASR网络。\nBonito的架构 本节引用的代码均已列出了具体的github repo和commit，读者可以对照源代码进行阅读。 以下是torchinfo输出的模型架构图（dna_r9.4.1_e8_hac@v3.3, state_len=4），模型的输入为[64,5000](batchsize, current_length)\n========================================================================================== Layer (type:depth-idx) Output Shape Param # ========================================================================================== Model [64, 1000, 1024] -- ├─Sequential: 1-1 [64, 1000, 1024] -- │ └─Convolution: 2-1 [64, 4, 5000] -- │ │ └─Conv1d: 3-1 [64, 4, 5000] 24 │ │ └─Swish: 3-2 [64, 4, 5000] -- │ └─Convolution: 2-2 [64, 16, 5000] -- │ │ └─Conv1d: 3-3 [64, 16, 5000] 336 │ │ └─Swish: 3-4 [64, 16, 5000] -- │ └─Convolution: 2-3 [64, 384, 1000] -- │ │ └─Conv1d: 3-5 [64, 384, 1000] 117,120 │ │ └─Swish: 3-6 [64, 384, 1000] -- │ └─Permute: 2-4 [1000, 64, 384] -- │ └─LSTM: 2-5 [1000, 64, 384] -- │ │ └─LSTM: 3-7 [1000, 64, 384] 1,182,720 │ └─LSTM: 2-6 [1000, 64, 384] -- │ │ └─LSTM: 3-8 [1000, 64, 384] 1,182,720 │ └─LSTM: 2-7 [1000, 64, 384] -- │ │ └─LSTM: 3-9 [1000, 64, 384] 1,182,720 │ └─LSTM: 2-8 [1000, 64, 384] -- │ │ └─LSTM: 3-10 [1000, 64, 384] 1,182,720 │ └─LSTM: 2-9 [1000, 64, 384] -- │ │ └─LSTM: 3-11 [1000, 64, 384] 1,182,720 │ └─Permute: 2-10 [64, 1000, 384] -- │ └─LinearCRFEncoder: 2-11 [64, 1000, 1024] -- │ │ └─Linear: 3-12 [64, 1000, 1024] 394,240 │ │ └─Tanh: 3-13 [64, 1000, 1024] -- ========================================================================================== Total params: 6,425,320 Trainable params: 6,417,640 Non-trainable params: 7,680 Total mult-adds (G): 386.11 ========================================================================================== Input size (MB): 0.64 Forward/backward pass size (MB): 877.57 Params size (MB): 12.85 Estimated Total Size (M
…
